…
n","Creating CNN model...\n","Model: \"model_3\"\n","__________________________________________________________________________________________________\n","Layer (type)                    Output Shape         Param #     Connected to                     \n","==================================================================================================\n","input_4 (InputLayer)            [(None, 39, 135, 3)] 0                                            \n","__________________________________________________________________________________________________\n","conv2d_21 (Conv2D)              (None, 39, 135, 32)  896         input_4[0][0]                    \n","__________________________________________________________________________________________________\n","conv2d_22 (Conv2D)              (None, 37, 133, 32)  9248        conv2d_21[0][0]                  \n","__________________________________________________________________________________________________\n","batch_normalization_12 (BatchNo (None, 37, 133, 32)  148         conv2d_22[0][0]                  \n","__________________________________________________________________________________________________\n","max_pooling2d_12 (MaxPooling2D) (None, 18, 66, 32)   0           batch_normalization_12[0][0]     \n","__________________________________________________________________________________________________\n","dropout_12 (Dropout)            (None, 18, 66, 32)   0           max_pooling2d_12[0][0]           \n","__________________________________________________________________________________________________\n","conv2d_23 (Conv2D)              (None, 18, 66, 64)   18496       dropout_12[0][0]                 \n","__________________________________________________________________________________________________\n","conv2d_24 (Conv2D)              (None, 16, 64, 64)   36928       conv2d_23[0][0]                  \n","__________________________________________________________________________________________________\n","batch_normalization_13 (BatchNo (None, 16, 64, 64)   64          conv2d_24[0][0]                  \n","__________________________________________________________________________________________________\n","max_pooling2d_13 (MaxPooling2D) (None, 8, 32, 64)    0           batch_normalization_13[0][0]     \n","__________________________________________________________________________________________________\n","dropout_13 (Dropout)            (None, 8, 32, 64)    0           max_pooling2d_13[0][0]           \n","__________________________________________________________________________________________________\n","conv2d_25 (Conv2D)              (None, 8, 32, 128)   73856       dropout_13[0][0]                 \n","__________________________________________________________________________________________________\n","conv2d_26 (Conv2D)              (None, 6, 30, 128)   147584      conv2d_25[0][0]                  \n","__________________________________________________________________________________________________\n","batch_normalization_14 (BatchNo (None, 6, 30, 128)   24          conv2d_26[0][0]                  \n","__________________________________________________________________________________________________\n","max_pooling2d_14 (MaxPooling2D) (None, 3, 15, 128)   0           batch_normalization_14[0][0]     \n","__________________________________________________________________________________________________\n","dropout_14 (Dropout)            (None, 3, 15, 128)   0           max_pooling2d_14[0][0]           \n","__________________________________________________________________________________________________\n","conv2d_27 (Conv2D)              (None, 3, 15, 256)   295168      dropout_14[0][0]                 \n","__________________________________________________________________________________________________\n","batch_normalization_15 (BatchNo (None, 3, 15, 256)   12          conv2d_27[0][0]                  \n","__________________________________________________________________________________________________\n","max_pooling2d_15 (MaxPooling2D) (None, 1, 7, 256)    0           batch_normalization_15[0][0]     \n","__________________________________________________________________________________________________\n","flatten_3 (Flatten)             (None, 1792)         0           max_pooling2d_15[0][0]           \n","__________________________________________________________________________________________________\n","dropout_15 (Dropout)            (None, 1792)         0           flatten_3[0][0]                  \n","__________________________________________________________________________________________________\n","digit1 (Dense)                  (None, 26)           46618       dropout_15[0][0]                 \n","__________________________________________________________________________________________________\n","digit2 (Dense)                  (None, 26)           46618       dropout_15[0][0]                 \n","__________________________________________________________________________________________________\n","digit3 (Dense)                  (None, 26)           46618       dropout_15[0][0]                 \n","__________________________________________________________________________________________________\n","digit4 (Dense)                  (None, 26)           46618       dropout_15[0][0]                 \n","==================================================================================================\n","Total params: 768,896\n","Trainable params: 768,772\n","Non-trainable params: 124\n","__________________________________________________________________________________________________\n","Epoch 1/300\n","219/219 - 42s - loss: 14.8587 - digit1_loss: 3.
…
