…
]\n","Creating CNN model...\n","Model: \"model\"\n","__________________________________________________________________________________________________\n","Layer (type)                    Output Shape         Param #     Connected to                     \n","==================================================================================================\n","input_1 (InputLayer)            [(None, 39, 135, 3)] 0                                            \n","__________________________________________________________________________________________________\n","conv2d (Conv2D)                 (None, 39, 135, 32)  896         input_1[0][0]                    \n","__________________________________________________________________________________________________\n","conv2d_1 (Conv2D)               (None, 37, 133, 32)  9248        conv2d[0][0]                     \n","__________________________________________________________________________________________________\n","batch_normalization (BatchNorma (None, 37, 133, 32)  148         conv2d_1[0][0]                   \n","__________________________________________________________________________________________________\n","max_pooling2d (MaxPooling2D)    (None, 18, 66, 32)   0           batch_normalization[0][0]        \n","__________________________________________________________________________________________________\n","dropout (Dropout)               (None, 18, 66, 32)   0           max_pooling2d[0][0]              \n","__________________________________________________________________________________________________\n","conv2d_2 (Conv2D)               (None, 18, 66, 64)   18496       dropout[0][0]                    \n","__________________________________________________________________________________________________\n","conv2d_3 (Conv2D)               (None, 16, 64, 64)   36928       conv2d_2[0][0]                   \n","__________________________________________________________________________________________________\n","batch_normalization_1 (BatchNor (None, 16, 64, 64)   64          conv2d_3[0][0]                   \n","__________________________________________________________________________________________________\n","max_pooling2d_1 (MaxPooling2D)  (None, 8, 32, 64)    0           batch_normalization_1[0][0]      \n","__________________________________________________________________________________________________\n","dropout_1 (Dropout)             (None, 8, 32, 64)    0           max_pooling2d_1[0][0]            \n","__________________________________________________________________________________________________\n","conv2d_4 (Conv2D)               (None, 8, 32, 128)   73856       dropout_1[0][0]                  \n","__________________________________________________________________________________________________\n","conv2d_5 (Conv2D)               (None, 6, 30, 128)   147584      conv2d_4[0][0]                   \n","__________________________________________________________________________________________________\n","batch_normalization_2 (BatchNor (None, 6, 30, 128)   24          conv2d_5[0][0]                   \n","__________________________________________________________________________________________________\n","max_pooling2d_2 (MaxPooling2D)  (None, 3, 15, 128)   0           batch_normalization_2[0][0]      \n","__________________________________________________________________________________________________\n","dropout_2 (Dropout)             (None, 3, 15, 128)   0           max_pooling2d_2[0][0]            \n","__________________________________________________________________________________________________\n","conv2d_6 (Conv2D)               (None, 3, 15, 256)   295168      dropout_2[0][0]                  \n","__________________________________________________________________________________________________\n","batch_normalization_3 (BatchNor (None, 3, 15, 256)   12          conv2d_6[0][0]                   \n","__________________________________________________________________________________________________\n","max_pooling2d_3 (MaxPooling2D)  (None, 1, 7, 256)    0           batch_normalization_3[0][0]      \n","__________________________________________________________________________________________________\n","flatten (Flatten)               (None, 1792)         0           max_pooling2d_3[0][0]            \n","__________________________________________________________________________________________________\n","dropout_3 (Dropout)             (None, 1792)         0           flatten[0][0]                    \n","__________________________________________________________________________________________________\n","digit1 (Dense)                  (None, 26)           46618       dropout_3[0][0]                  \n","__________________________________________________________________________________________________\n","digit2 (Dense)                  (None, 26)           46618       dropout_3[0][0]                  \n","__________________________________________________________________________________________________\n","digit3 (Dense)                  (None, 26)           46618       dropout_3[0][0]                  \n","__________________________________________________________________________________________________\n","digit4 (Dense)                  (None, 26)           46618       dropout_3[0][0]                  \n","==================================================================================================\n","Total params: 768,896\n","Trainable params: 768,772\n","Non-trainable params: 124\n","__________________________________________________________________________________________________\n","Epoch 1/300\n","165/165 - 16s - loss: 15.1051 - digit1_loss: 3.
…
